best_params.npy (npy, 1192 bytes, 1 tensors)

array f8 [133]
000000 3e 71 ac 51 04 52 cd 3f bb 33 fa 4c 1a e6 d2 bf
       0.2290654562756433 -0.29529435651130215
000010 83 38 3f f0 60 b0 ea bf d0 0f b0 04 ca ee d0 3f
       -0.8340305988620148 0.2645745321062778
000020 07 0a 2b 11 ad 53 eb bf 48 de 2e d0 e2 55 cf bf
       -0.8539643607439878 -0.24480853238286415
000030 16 91 a7 bc 3a 95 d4 3f 96 5a 7f af 21 cf e0 3f
       0.3216082422570862 0.525284617203243
000040 d6 73 d1 21 9f 78 b2 bf 07 53 6d fb 15 6d c0 bf
       -0.07215303969992645 -0.12832903649054847
000050 7e 6f 26 7a 8b 21 e5 bf 60 55 3c a6 a0 57 cd 3f
       -0.6603448281998536 0.2292366801927228
000060 00 98 06 f5 c5 e7 67 bf 8c a7 76 15 84 0a d6 3f
       -0.0029181352949363415 0.34439184280437796
000070 00 fe 7c de fe cc e9 3f ad f2 58 82 4f 5d e0 bf
       0.8062738748048446 -0.511390451989049
000080 38 bc 25 f6 b0 6b e5 bf bd b5 1a b5 a7 2e cf bf
       -0.6693959052626104 -0.24361130087838304
000090 5b 2c f1 3b 40 bd db 3f e0 cc 2f d9 80 27 d4 bf
       0.4334259591457276 -0.31491109094277014
0000a0 a5 09 18 48 f1 51 ba bf b0 92 1f 58 fd 23 e4 3f
       -0.10281284341912185 0.6293932648810223
0000b0 42 8c d3 f7 5e 77 f0 3f ce 4b 40 32 0c 78 c6 bf
       1.0291433029858728 -0.17553856328649292
0000c0 13 e0 57 25 b1 07 c0 bf 6e 78 58 10 d4 0f e5 3f
       -0.12523474048043734 0.6581821746110685
0000d0 36 ea 9d 7e 1e 6d cf bf 18 a4 fb e0 bb b9 d7 3f
       -0.24551755125487923 0.3707112977122633
0000e0 90 74 c5 73 27 8c da bf f9 aa 8c 41 b1 3b f0 3f
       -0.4148043280200193 1.01457334141986
0000f0 06 00 3a 7a 83 cc e0 bf 06 60 43 58 a4 2b e3 bf
       -0.524965037082439 -0.5990773891344368
000100 23 aa cc 9b f5 93 e7 bf 37 39 0d 23 6c 73 d7 bf
       -0.7368114512403888 -0.3664198248196899
000110 e3 e6 1a 05 fb 37 f3 3f 13 2f 8f 4d b0 d0 e5 3f
       1.2011671256463436 0.6817246928053201
000120 bc e5 33 60 25 2a a3 bf d1 94 40 5b 80 83 db 3f
       -0.037430923455711945 0.42990120803217474
000130 ae b5 20 9b 1d d4 eb bf 12 e9 72 45 3f c7 e1 bf
       -0.8696430234755803 -0.5555721622870655
000140 e4 32 24 2f 5a 89 e6 bf 52 0c b5 3d 30 9f e3 3f
       -0.7042666359644412 0.6131821828097463
000150 8c 64 bd 9c 23 aa f9 3f 83 a8 a9 88 44 d5 d7 3f
       1.6040378687523882 0.37239182802171217
000160 85 f1 25 73 8e ed f3 3f 0e 72 ba 38 02 78 e5 3f
       1.2454971788384637 0.6708994968390145
000170 03 62 d5 4d f8 80 d6 3f 17 32 47 ee 42 f7 e6 bf
       0.35162170029573775 -0.7176832822675036
000180 16 4f a9 2d 65 8c c4 3f 76 99 a1 ec ee 89 cc 3f
       0.1605345223384737 0.2229593902040496
000190 4c 5d 67 f2 f3 0a c5 bf ab 86 05 d5 7e 3c f5 3f
       -0.1643967565166612 1.3272693940311153
0001a0 c9 a3 7a d4 82 94 e5 bf 61 d0 d6 fa fc 27 ec 3f
       -0.6743787908536599 0.8798813723756319
0001b0 7e d5 9e a0 cb db d1 bf f9 26 68 17 f2 c0 d7 3f
       -0.2790402477797541 0.3711514690954654
0001c0 ee a2 90 b0 10 30 ec bf fb 81 0e ab 42 49 f3 bf
       -0.8808673332724462 -1.2053858453656392
0001d0 0e f6 ba 12 82 00 a8 bf ec ba 04 5c 34 df e0 bf
       -0.04687887648240628 -0.5272466466174968
0001e0 f0 ff 25 5f ac cd d4 3f 53 8f 18 e3 f4 64 f0 bf
       0.32505330364074236 -1.0246476050314939
0001f0 e2 92 44 1c fb 73 da bf 2c 82 26 78 3a 8e e9 3f
       -0.41332891235860647 0.7986118647277798
000200 ca 51 c6 e7 4f 9e d9 bf 6e e1 e0 3f 5a 2c e4 bf
       -0.40028760561224586 -0.6304141280771043
000210 24 d4 f5 a7 3e 53 b0 bf c0 33 9d 21 ec 54 80 bf
       -0.06377021408646094 -0.007974476600475344
000220 a7 2a d3 ee 17 21 f1 3f 88 59 f3 72 8e 42 ec 3f
       1.070579464826247 0.8831245656136142
000230 84 1b 56 04 37 7d c3 bf 2b 52 ee 70 1d aa f2 bf
       -0.15225875579582404 -1.1665319835057157
000240 ec d6 54 e7 96 f3 d7 3f a2 50 70 9a 92 08 c4 3f
       0.3742425211997744 0.1565116170974124
000250 28 0b 0b 3a c1 51 e2 3f 9f 4c 47 2a 93 d5 e7 3f
       0.5724798329978045 0.7448211503746228
000260 76 ce 0c 08 7b e8 d6 3f e8 c3 82 0a 8c aa a3 bf
       0.3579394892323998 -0.03841054561906515
000270 08 05 0b 22 21 6a ca 3f a0 47 7e 49 cf d1 98 3f
       0.20636381304033358 0.024237860546754697
000280 5f 48 c9 d4 92 8f eb bf 08 bb 36 d1 ea db f5 bf
       -0.8612760692578937 -1.3661907360471464
000290 60 c5 84 84 66 57 e4 bf 4a 1f 56 f0 f4 52 d6 bf
       -0.6356690014128326 -0.3488132807765295
0002a0 88 3a 66 2c 0a 7e de 3f 7a 8f 91 76 b8 87 c1 3f
       0.4764428552233899 0.13695436276895717
0002b0 42 43 b4 41 4b 62 f4 3f 76 cb 3d 64 a9 1e d3 bf
       1.2739975515907678 -0.2987464407844337
0002c0 6d 11 f9 f2 59 1e db bf 80 5a 2b 5b 2e e2 e5 bf
       -0.42372750022720745 -0.6838599949504243
0002d0 b4 0c f7 79 2f 1d c9 3f 33 7e e3 ce 31 8a c5 3f
       0.1962031693966303 0.16827986337647047
0002e0 ca 4a 33 27 c6 b9 c6 bf 5a f5 78 16 69 c1 d0 3f
       -0.17754437364654613 0.2618048400361964
0002f0 a4 ab 0b 1f ec c3 b5 bf f6 ad 75 89 00 53 e3 3f
       -0.08502078779171868 0.6038820919761168
000300 39 1f 48 59 ab f0 f3 3f 20 5d f4 56 0c fe c6 bf
       1.2462571609084547 -0.17962793584659043
000310 12 44 32 5d 4f ef d3 bf 88 36 80 37 23 89 e5 3f
       -0.31148132420736474 0.6729904254913928
000320 06 94 e2 b5 69 17 d4 bf 1b c7 7b ba df 9f f7 bf
       -0.3139290119382284 -1.4765317234527575
000330 f4 49 b6 70 ad 48 ea 3f 43 0f 78 03 aa 51 f1 3f
       0.821371765270952 1.0824375281817573
000340 58 33 67 09 04 31 e5 3f 2f 40 51 9a ca f9 d6 3f
       0.6622333701758221 0.3589960581784934
000350 a5 50 67 d1 d3 c1 d8 3f 2e 2f f3 43 f4 82 b0 3f
       0.38683028649871637 0.06449820193227815
000360 45 8b c5 83 b4 48 d0 bf e5 9a aa 4f 22 8c a7 bf
       -0.2544375693161565 -0.045991012787728804
000370 af 02 6e 45 cf 1b e7 bf 9a e2 e7 f9 e3 a2 f1 3f
       -0.722144733052195 1.1022681962914818
000380 cf 2c 2e 74 ce fe fa bf 46 3e e6 43 26 28 b9 bf
       -1.6872086084647895 -0.09826888234805961
000390 63 66 e8 06 44 d1 f8 bf d1 54 a9 4f 45 82 f3 3f
       -1.5510902662121218 1.2193043815398605
0003a0 d9 0d d3 02 f8 5d f0 bf 60 49 43 35 80 3a e8 bf
       -1.0229415998772906 -0.7571412124910175
0003b0 b4 3d 80 9d 63 ec b2 bf 9e 8b 6f bc ed c6 e3 3f
       -0.07391951174962835 0.6180332832703817
0003c0 e2 dc d3 5b 98 a0 b7 3f 09 1f dd 02 a5 d8 c2 3f
       0.09229423753628255 0.14723646774131563
0003d0 6b e9 76 b5 79 1f e5 bf c2 d5 af 30 c1 27 d6 bf
       -0.6600922149876117 -0.34617643122268416
0003e0 3e 06 9d 2f a5 76 e3 bf da dd 05 6f 6c 4d ce 3f
       -0.6082330636929283 0.23673777981797067
0003f0 40 36 ec 8c 0d 2c c8 bf 30 95 7a 53 31 3b b7 3f
       -0.18884438878051135 0.09074695861871329
000400 3f a5 ac b7 02 ff e2 3f 41 c7 fe 87 aa 38 a2 bf
       0.59362922548204 -0.03558857832048413
000410 1f 34 10 0f 18 27 c2 3f 14 db 09 de 5c 79 b2 3f
       0.1418180535842177 0.0721643488012485
000420 44 e4 4a 0a 2e 59 e8 bf
       -0.7608862114931374
